saved_model/cnn_model.pth (torch, 158441 bytes, 8 tensors)

conv.0.weight f4 [16, 1, 3]
00000000: 88b0 59bf f22b 713e cf24 dd3e bfde b93e
00000010: f82e 803e 86df 0dbf 99b1 053f 5521 f9bd
00000020: 8d0d 55be ad42 283e 4154 dcbe 5056 0a3e
00000030: e841 933e d135 cfbe 7575 e63e 7bbd c0be
00000040: 65f0 5a3d 19b1 543e 0393 e83e 6bb0 e2be
00000050: 87cd 153f 4759 0cbf 282b 0a3e 1c27 073f
00000060: bbad 123f ed50 b2be db92 c6be df79 373e
00000070: 3278 1a3f cd3e d73e 0e70 7b3e e55e 46bf
00000080: b995 0dbf fb9d 853d 8c9b 4f3e fed9 1a3d
00000090: b328 9abe 2717 793e 276f e1be 239c 863e
000000a0: dd7f 08bf 9752 bfbe 8a94 4ebf ca4a 8abd
000000b0: c27c ad3e 3385 103e d3b6 003f 3e86 12be
-0.8503499 0.2355192 0.43192145 0.36302754 0.25035834 -0.55419195 0.5222412 -0.12164561
-0.2080595 0.16431685 -0.4303303 0.13509488 0.2876122 -0.40470746 0.45011488 -0.37644562
0.053451914 0.20770682 0.4542466 -0.4427522 0.58516735 -0.54823726 0.13493025 0.5279405
0.5729634 -0.34827366 -0.38783917 0.17917584 0.60339653 0.420401 0.24554464 -0.7748855
-0.55306584 0.06524273 0.2027418 0.03780555 -0.30109176 0.24325238 -0.44030115 0.26290998
-0.53320104 -0.373677 -0.806954 -0.06752546 0.33884245 0.14113311 0.5027897 -0.14309022

conv.0.bias f4 [16]
00000000: 6d9d 853d a648 cc3e a252 e03e e014 9a3e
00000010: 66d9 aebe 9483 2ebd 09dd 933e 4629 9a3d
00000020: 59d4 a03e 6d95 993e 52be 503e dcd5 8abe
00000030: 85d9 e03d f9e1 28bb 37c0 b5bd 699b 8d3e
0.06524167 0.39899176 0.43813044 0.3009405 -0.34150237 -0.04260595 0.28879574 0.075274035
0.31412008 0.29996815 0.20385101 -0.27116287 0.109789886 -0.0025769456 -0.08874553 0.2765763

conv.3.weight f4 [32, 16, 3]
00000000: 1b99 0c3d 5429 223e a245 bebd d6de 74be
00000010: 5499 17be 7a2c 743d c286 c73c 2602 db3d
00000020: 4806 a33d 2154 d13d f227 16be f54d ec3d
00000030: 6b54 c83c e518 81bd 794a b93b 05f8 033d
00000040: 68ff f43d 0c97 003d 28de bdbd 6070 9abd
00000050: f974 16bc 4071 0d3e c823 99bc ab7e d5bd
00000060: 2f68 f5bc 1296 2d3c 47e7 d1bc 1c99 09be
00000070: 525b 033e 6e5a 413e 4039 f53d 701c 293d
00000080: a313 21bd 42a1 a3be 4e43 a5bd c705 dbbd
00000090: 0798 5fbe 75e1 9dbd 27b3 39bc 6f5d 08bd
000000a0: e91c 8b3d d80d 46b7 c6b6 133e 0fa3 ec3d
000000b0: 2727 173d 1c3d 4ebd 4d0b 283d b277 e4bd
000000c0: dfbd ca3d 2c73 a73c f883 003d c517 343d
000000d0: 93bd 0fbe 6045 e0bd 4bfc fa3d 4c44 c33d
000000e0: f31e eabd 1592 523d 7208 c2bd 4630 00be
000000f0: 5587 53be 7141 20bd 9ee0 5c3d d2ec 28bd
00000100: ec6d 0cbe 1f9d 2c3c 701c e2bd ea13 503d
00000110: b386 d3bd 5dbe 06bd aabe 28be 71e3 d73d
00000120: d9dc b0bd d11f b0bd c2eb 3abe 126e a33b
00000130: 9bbb 9e3d e901 7b3d afe6 a3bc 8972 313e
00000140: f034 0dbe fa08 a4bd e924 42bc f874 b4bd
00000150: 4624 42bc 6157 e63d 1631 083e 8cfb e5bd
00000160: 939a 39bd 3575 c5bd e6f3 30be b973 b73d
00000170: 992e cb3d b718 a5bc bb64 643b f65b cc3d
00000180: aa8e 59bd fb2b 17bd 749b 1e3c b3cf c5bd
00000190: 2011 c03c 469e 4f3e 27e8 58bc df27 1b3e
000001a0: 2ae0 1bbd a839 92bc 6e4e 05bd e694 303e
000001b0: abb2 10bd f24d e23d d1ad b93d bf7d a03c
000001c0: 3318 c3bd 654a cabd bce7 0ebe 789e 053e
000001d0: edd5 b33d 35b4 4ebe 789b 93bd bb8b e9bc
000001e0: 0d18 22be 651c 16be 5b50 76ba ff05 11be
000001f0: 5e34 c2bd fdf3 3ebe ca33 123e 642f af3d
00000200: ffc9 843e 87a1 d9bd 0a00 a53d c5e9 debc
00000210: 706c 553d 6ddf 07bc cdb2 dfbb 1ee3 33bd
00000220: 2ac1 3fbd b242 a73d ea7e 5fbd 73fe 0b3e
00000230: 949a b63d bf84 133d d956 073d a1d6 163e
00000240: b411 9abd 34ab b83d 1d79 8a3d e368 2bbd
00000250: 506b dfbd 24db 993d 9c1e fcbd a998 afbd
00000260: d8bb ad3d 055b 43bd 03c5 0e3e f293 cbbd
00000270: 1f95 d03d 5bef a53d b783 313c 5269 1abe
00000280: df62 833d e7a2 893d 640e eabc 8884 05bd
00000290: b499 d73d 6f0e edbd ecee 873c c12d b1bd
000002a0: a276 76bd e7d7 9fbd e0bf 193d dd98 98bd
000002b0: ccaf 8dbd 850e 37bb 89e0 a6bd c6c3 733b
000002c0: cd29 edbc 667a e33d 86ee 04bc 2f74 36bc
000002d0: a70d cb3d 17be 3d3e 478a ce3d 0d77 55bc
000002e0: 49ea 093b f095 01be 7af0 d93d 554d 903d
000002f0: ac03 71bd 1f2e c0bc d392 9bbd dbb0 a03d
00000300: c4f9 a63c b5c1 6f3e 5bf3 b83c 92a4 6b3d
00000310: 50cf aebd 1eb1 09be 7dcb 343d 22e3 a13d
00000320: 9d8c dc3c ae1b a6bd fc31 dc3d f159 eb3d
00000330: 7078 bebd 6cda 363e ba9a 853c 18ab 093e
00000340: d749 863c 13d4 893c c1b0 07be 903a 10bd
00000350: fccd 0a3c a56d d1bd 67d5 cd3c 4e4d 35be
00000360: 43d6 543d c61d 0c3d 1ace 8c3d 6713 883d
00000370: 321e 363d ec23 8f3d 71af 47bc ae14 4abe
00000380: 62be 3cbe eff4 393c 3a6b a6bd d8f9 a0bd
00000390: 7470 1fbd 40a4 8a3d 85e3 c8bc 8aa4 063e
000003a0: c715 cbbd 36d9 25be 5f15 033e 4ec0 ae3d
000003b0: e190 15bd 2c94 85bd ac73 323d 91be f7bd
000003c0: c7d8 c93d bd00 233d cd16 cfbd f95c 123d
000003d0: b336 0b3e e8e0 7abd f076 293d 7a49 d2bc
000003e0: bc12 723c 2429 93bd f98f 6bbd 6627 3e3c
000003f0: 59bd f6bd 0294 053d e9e4 b9bd 733c 533d
0.0343257 0.15836078 -0.09290625 -0.2391313 -0.14804584 0.05961273 0.02435625 0.10693769
0.079601824 0.102211244 -0.14663675 0.115383066 0.024454316 -0.063035764 0.00565463 0.03221895
0.119627774 0.03139405 -0.092708886 -0.07540965 -0.009183162 0.13812733 -0.01869382 -0.104245506
-0.029956905 0.010594862 -0.025622977 -0.13437313 0.12827805 0.18882152 0.1197381 0.041286886
-0.039325368 -0.31958967 -0.08069478 -0.10694461 -0.21835338 -0.07709018 -0.011334217 -0.03329223
0.067926235 -1.1804943e-05 0.14425191 0.115545385 0.036902573 -0.050351247 0.041026402 -0.111556426
0.09899496 0.02044066 0.031375855 0.04396798 -0.1403716 -0.10950732 0.12255152 0.09534511
-0.11431684 0.051408846 -0.09474267 -0.12518415 -0.20657094 -0.03912491 0.05392515 -0.041241474
-0.13713807 0.010535507 -0.1104058 0.05080024 -0.10328426 -0.03289639 -0.16478983 0.10541428
-0.08635873 -0.085998185 -0.18253997 0.0049874866 0.07750627 0.06128112 -0.02000746 0.17328848
-0.13789725 -0.08009525 -0.01184962 -0.088113725 -0.011849469 0.11247135 0.13299975 -0.112296194
-0.04531343 -0.09641496 -0.1728054 0.08957619 0.09920997 -0.020153387 0.003485008 0.09978478
-0.05311457 -0.036907177 0.009680618 -0.09658756 0.023445666 0.2027522 -0.013238943 0.15151928
-0.038055576 -0.017849758 -0.0325455 0.172443 -0.03532664 0.11050023 0.09066356 0.01959121
-0.095261 -0.09877471 -0.13955587 0.13048732 0.087810375 -0.20185931 -0.07207388 -0.028509011
-0.15829487 -0.14659269 -0.0009396129 -0.14162444 -0.094826445 -0.18647762 0.14277568 0.08553961
0.2593536 -0.10626512 0.08056648 -0.02721108 0.052105367 -0.008293015 -0.0068267346 -0.043917768
-0.046815075 0.08167018 -0.054564394 0.13671283 0.08916202 0.03601527 0.03304181 0.14730312
-0.07522908 0.090170294 0.06761382 -0.041848075 -0.1090914 0.07512501 -0.12310526 -0.085740395
0.08483094 -0.047694225 0.13942342 -0.09940328 0.101846926 0.08102294 0.010834626 -0.15079239
0.064153425 0.06720524 -0.028571315 -0.032597095 0.105273634 -0.115750186 0.016593419 -0.08651305
-0.06017173 -0.07804852 0.037536502 -0.07451031 -0.06918296 -0.0027932238 -0.081482954 0.0037195547
-0.028950596 0.1110733 -0.008113509 -0.011136099 0.09914713 0.18529545 0.10084968 -0.013028872
0.0021044186 -0.12654853 0.106415704 0.07046 -0.058841392 -0.023459492 -0.07596364 0.078462325
0.02038277 0.23413737 0.022576978 0.057529993 -0.085356355 -0.13446471 0.044139374 0.0790465
0.026922518 -0.08110748 0.10751721 0.11491764 -0.093003154 0.17856759 0.016309131 0.13444173
0.016392631 0.016824758 -0.1325102 -0.0352121 0.008471962 -0.10225991 0.025126172 -0.1770527
0.05196215 0.03420808 0.06875248 0.06644326 0.04446239 0.069892734 -0.012187825 -0.19734451
-0.18432 0.011349901 -0.081259206 -0.07860154 -0.038925603 0.067696095 -0.024522552 0.13148704
-0.09916263 -0.1619614 0.12801121 0.08532773 -0.03651512 -0.06522402 0.043567345 -0.120968945
0.098558 0.039795626 -0.10111771 0.035733197 0.13595085 -0.061249644 0.041373193 -0.025669802
0.014774974 -0.07185581 -0.05751035 0.011606073 -0.12047834 0.032611854 -0.09076864 0.05157132

conv.3.bias f4 [32]
00000000: aff2 de3c c825 513e e4c8 7abd d7e7 b2bd
00000010: 13aa 7ebd 627e e1bd 4ef2 aabd 9ad9 b43c
00000020: 8781 003d 8360 ab3c a22a 833d 5f44 913d
00000030: 9c1b 87bd d49a 483d f5da 9f3d 2f11 053e
00000040: 4f29 c53d 570d d53d bd02 0abe 1c6d 8b3b
00000050: 2992 e53d 8a6f 3e3e f285 c6bb 0ec4 75bd
00000060: 3528 033e 41d2 873d 23c2 803e 59c8 e83d
00000070: 839f e3bd 573a d73d d120 323e 0635 58bd
0.02721533 0.20424569 -0.06122674 -0.08735626 -0.062173914 -0.11010434 -0.08346997 0.022076417
0.031373527 0.020920044 0.06404616 0.07093119 -0.06597063 0.04897578 0.078054346 0.12994836
0.096270196 0.10402935 -0.13477607 0.00425495 0.112095185 0.18597236 -0.006058448 -0.060001425
0.12808307 0.066318996 0.25148115 0.11366338 -0.11114409 0.10509174 0.17395331 -0.052784942

fc.weight f4 [64, 576]
00000000: d7ce b03c 938f 113c 1390 a7bd c3c5 4a3d
00000010: 31da 2d3d 4593 163a bb10 d1bc 60b6 85bc
00000020: 6d4a aebc 2b8a 4fbd c3ea a43c 9549 723c
00000030: 372b 77bd 9e2f 8a3c b880 1cbd b270 a5bc
00000040: d513 1f3d 90d0 babb 144e 3cbc e321 a3bc
00000050: 1e82 d2bc 518e e53c 2c49 62bc c287 a4bd
00000060: 4cd1 5f3d df04 cb3b 0423 c43d a1db e13c
00000070: 0566 0d3b 73ff 2c3d 0d5b 48bd 3257 4f3d
00000080: 46cf fe3c 4e74 f6bc 7a7c 7d3c 4e4a 51bc
00000090: 3277 a5bd 4bd3 e83c 2e27 943b 7648 27bb
000000a0: 7a5a 95bc 6d8a fd3c 0a87 223e 4ddd efbc
000000b0: 54d2 8cbc 8e29 643d f2f6 3c3d a8c2 3eba
000000c0: 6784 043e a86f ca3d fd40 0dbd 79a4 673a
000000d0: 5b5f 8fbd 8af0 72bd 9d74 1bbc 9110 793c
000000e0: 2373 7abc ddf4 c43b fe14 30bc 8b30 09bd
000000f0: 09bd 653b 3917 8cbc 4a89 61bd bb0c a13d
00000100: 654c d23c 6405 17bd c490 a13d f49c b43c
00000110: a075 2cbd bd0b 6f3d 9e35 4f3d feff 2c3c
00000120: 5e7d 203d 8e05 35bb d15d 71bc 96ca 2d3d
00000130: 5084 e63c 521e bfbb 32f8 1d3d 94b2 eabc
00000140: e937 35bc 6f8e b0bc ed5a 983c b25d 213d
00000150: bbf1 9bbd 51c7 d9bd a850 b6bc 68da 5a3d
00000160: c71e c23d 3118 6ebd c896 033e 21aa 36bd
00000170: 8b3d 09bd 2e7d 84bb 719b c33b 24b3 293d
00000180: 17c7 283d 356c b23c 6f34 46bc 72f0 f6bc
00000190: 054f 2d3c 21d6 093d b5ba 013e 43e7 543c
000001a0: ba59 5b3d 962b 16bd 4cea d5ba 4549 ba3d
000001b0: 39e0 82bc d348 503e dd6a ebbb 87d5 c93c
000001c0: ac59 f33b 3e35 5ebc ef81 ffbc 1bdf ad3c
000001d0: ae9d 753d 4efc 043d dd41 d13b 07e2 8e3d
000001e0: 40e1 bc3d 85e6 edb9 04ae 943c 7926 9a3d
000001f0: 63b6 a23c 983a 37bc c877 b43d 02e0 ed3c
00000200: 38ba e83b ccdd f63c 4d91 873d 77bd 81bc
00000210: a572 ff3c 0e5d 063d 5599 29bd f173 78bd
00000220: 4286 b53d ddb9 6c3d 011d d5bd 10a2 93bd
00000230: 8a6d 7e3a a414 afba daa1 cb3d 2c9b 69bd
00000240: 560b e23b eba4 fb3b f6ee 31bd 0083 9abd
00000250: 252b 67bb d249 e13c b75d 3c3d 34eb 313c
00000260: 0b4f c83d 5429 963d 249f d63d ade8 a13b
00000270: cf52 bd3d a5ce 9f3c bd77 b3bc 0d78 c83d
00000280: b21a b7bd 2350 5e3d a72e 963d 9edc 9eb8
00000290: 5e1c bf3c 2d5a df3c 6c45 853c 4495 07bc
000002a0: 4592 97bc 8919 1fbd 6147 b03b 21da e03c
000002b0: 5e8e 1cbc 9adf bf3d 29b0 a33c 6794 84bd
000002c0: a83f 8fbc 73da 3fbd ccd3 f43b f25a 8cbd
000002d0: 029e 223d 38e9 3bba 5bb3 1cbd f946 a23c
000002e0: 70ec 71bd 04a4 363d 965d 54bc cfb4 20bd
000002f0: 61db aabc 577d d0bc 39a8 4cbc baf0 933d
00000300: 4cd9 a63c ed0a 5bbc 4620 b1ba 33f8 32bc
00000310: b13a 113d c8f4 4abd baad c43c bb9e a7bd
00000320: 46ad 7abb 3a24 eabc a8d7 4e3d 3531 663c
00000330: 70ca 583b 5d17 27bd 7a9d 1b3d 742b 84bd
00000340: 7064 843c 2444 ab3d 8cbd 003c 5d0f 96bc
00000350: 000c 3e3d 79a9 c8bd 5286 933c 3f44 84bd
00000360: 480a 093e 395d 24bd c4b5 493d 7200 3e3d
00000370: 83cd 793b 3d60 1abd 5947 b03c 9a0e 673c
00000380: ad20 90bb fece 123c f357 1c3d 7c8c 903c
00000390: c7bf fd3c b13a 093b ae60 c73a cbbf e83c
000003a0: 4d33 6d3c b6dd 673d ebb1 043e a350 12bd
000003b0: 2e7b f6bc 1474 0e3d a614 0cbd 1943 41bd
000003c0: 1204 453d 3555 bbbc eb4a bdbc 695e 8f3c
000003d0: 8cff 14bc 3bda 16bd af03 6f3d eea1 96bc
000003e0: e886 febc 8016 85bd 4075 f2bc 7d6e 253c
000003f0: 0cf3 b9bd bbd3 963d 955d 38bc 4649 983c
0.021583004 0.008884328 -0.08181777 0.049505007 0.04244441 0.0005743991 -0.025520673 -0.016322315
-0.021275723 -0.050668877 0.020131474 0.014788051 -0.060343947 0.016868409 -0.038208693 -0.020195339
0.038837273 -0.005701132 -0.011493225 -0.01991362 -0.02569681 0.028021963 -0.013811391 -0.08033706
0.05464296 0.006195649 0.09576991 0.027570548 0.00215757 0.042235803 -0.048914958 0.050620265
0.031104695 -0.030084755 0.015471572 -0.012774063 -0.08079375 0.028421065 0.004521272 -0.0025525368
-0.01823162 0.030949796 0.15871826 -0.02928033 -0.017190136 0.055703692 0.046133943 -0.0007276931
0.12941132 0.09884578 -0.034485806 0.0008836459 -0.070006095 -0.059311427 -0.009488252 0.015201704
-0.01528624 0.0060106353 -0.010747192 -0.03349356 0.00350553 -0.017100917 -0.05506257 0.07863756
0.025671193 -0.036870375 0.0788894 0.022047497 -0.042104363 0.058360804 0.050588243 0.01055908
0.03918206 -0.002762172 -0.01473184 0.04242953 0.028139263 -0.005832472 0.038566776 -0.028649606
-0.011060693 -0.021552293 0.018598044 0.039395995 -0.07614466 -0.1063372 -0.022255257 0.053430945
0.094785266 -0.05812854 0.12850487 -0.04459584 -0.033505958 -0.004043243 0.005969458 0.041430607
0.041205492 0.021780113 -0.012097462 -0.03014395 0.010577922 0.033651475 0.1266888 0.01299459
0.053552367 -0.03666266 -0.0016320436 0.09096006 -0.015976058 0.2034028 -0.00718437 0.02463795
0.007426461 -0.013562499 -0.031189887 0.021224549 0.05996483 0.03246718 0.0063860253 0.06976705
0.092226505 -0.00045375913 0.018149383 0.07526869 0.01986236 -0.011183403 0.08811909 0.02903748
0.007102277 0.030135058 0.06619511 -0.015837414 0.031182596 0.032803588 -0.041405994 -0.060657445
0.08863498 0.05779444 -0.10405923 -0.07208645 0.00097056536 -0.0013357592 0.0994298 -0.05703275
0.006898324 0.007679572 -0.04344078 -0.075445175 -0.003527352 0.02750102 0.04598781 0.010859299
0.09780701 0.073321015 0.104795724 0.004941067 0.0924431 0.019507715 -0.021907682 0.09788523
-0.089406386 0.054275643 0.07333117 -7.57512e-05 0.023328956 0.027264679 0.016268454 -0.008275334
-0.018502364 -0.03884271 0.005379603 0.027447762 -0.009555427 0.093688205 0.01998146 -0.06473618
-0.017486408 -0.04683919 0.007471537 -0.06853284 0.03970147 -0.0007168236 -0.038256984 0.019809233
-0.059063375 0.04459001 -0.012961766 -0.039234933 -0.020856561 -0.025450392 -0.012491279 0.07223649
0.020367287 -0.013369304 -0.0013513647 -0.010923433 0.035456363 -0.049549848 0.02400862 -0.08184572
-0.0038250252 -0.028581727 0.050498635 0.014049818 0.0033079647 -0.040793765 0.03799198 -0.064536005
0.016161174 0.08362606 0.0078576915 -0.018317873 0.046398163 -0.09797949 0.018008385 -0.064583294
0.13382828 -0.040127967 0.04924561 0.046387143 0.003811688 -0.037689436 0.021518396 0.014102602
-0.0043984265 0.008960484 0.038169812 0.017645113 0.030975236 0.0020939524 0.0015211308 0.028411767
0.014477563 0.056607924 0.12958495 -0.035721432 -0.030088034 0.03477867 -0.03419938 -0.04718313
0.048099585 -0.022867778 -0.023107013 0.017501073 -0.00909413 -0.036829215 0.058353122 -0.018387761
-0.031070188 -0.06498432 -0.029596925 0.010097143 -0.09079561 0.07364603 -0.01125278 0.018589627

fc.bias f4 [64]
00000000: 9ca5 eebc c89e 553c 977a 4cbd c5d5 8a3c
00000010: 7c93 2fbc 082f 3cbd b8b9 1b3d a942 66bd
00000020: 29ae 083d 2292 0b3c e4f2 103d 18d2 c0bc
00000030: 0dab 5a3d d08d 2b3b e761 653c fef2 b33c
00000040: d092 943c 772c 64bd 4c4d 05bc 28c8 883c
00000050: 2871 4cbd e4b4 54bc fcce b2bc 5817 51bc
00000060: 8093 2cbd fc2b e03b ba78 54bb 3ba2 073c
00000070: a9ce 66bc 46d4 1abd 14b3 41bd 2a9a 823c
00000080: 1db5 003d 4cec 7b3c 4dc3 5f3d 2a7b 37bd
00000090: 08b9 09bb 3303 1bbd d0cf 70bd cd03 5dbd
000000a0: becf e83c 8b39 533c 836b 74bd 6006 5f3d
000000b0: 4345 703d 2213 cf3c 5e28 873c c0ae 83bb
000000c0: 7085 ffbb 5975 bf3c c219 4c3c 0ba7 6e3d
000000d0: c3d7 4e3d 204a a63c a900 07bd 7a34 f7bb
000000e0: 93e2 723d f5e5 abbc 7b14 033d db0c 463d
000000f0: 457e 05bd 5763 f4ba 68f4 1cbc d19a 6e3d
-0.029131703 0.013038345 -0.0499216 0.016947636 -0.010716315 -0.04594329 0.038018912 -0.056215916
0.033369217 0.0085187275 0.03538789 -0.02353768 0.053385783 0.0026177056 0.0140003925 0.021966454
0.018136412 -0.055706467 -0.008136105 0.016697004 -0.0499126 -0.012982581 -0.021827213 -0.012761913
-0.042132854 0.006841181 -0.0032420591 0.008278425 -0.014087358 -0.037800096 -0.047289923 0.015942652
0.031422723 0.015376162 0.054629613 -0.044795193 -0.0021014828 -0.037844848 -0.058791935 -0.053958703
0.028419372 0.012892137 -0.059672844 0.05444944 0.058659803 0.025277678 0.01649874 -0.0040186346
-0.0077978894 0.023371385 0.012457313 0.058264773 0.050498735 0.020299017 -0.032959614 -0.0075440975
0.05929811 -0.020983675 0.032001954 0.048352104 -0.032591123 -0.0018645328 -0.009579755 0.058253113

out.weight f4 [2, 64]
00000000: ecd4 5dbe 9fe5 2fbe 6036 bfbd d533 38be
00000010: bbcd 403e 5969 563c ecd8 d03d 6024 3fbe
00000020: 2b54 5f3e 2cfb 193e 803a 2d3d 5881 dbbd
00000030: 012c 843d 02f4 403c 4022 a83d bf3c 0d3e
00000040: e408 323e f0dc d9bd e59a 2dbe 5305 0cbd
00000050: 1919 b3bd a73d 213e 5e8b 383e 2b33 fabd
00000060: 065e 10be e286 37be 3469 4cbe fbf3 003e
00000070: 314a e93c 6c3e 3ebe 5912 0bbe fffa ac3d
00000080: aea2 8a3c e236 18be 6ba1 f43d ad54 0bbe
00000090: cd74 3c3e cb6b d4bd aa04 33bd fcc4 1cbe
000000a0: d5e3 523e 61e3 463e 35f1 46be d004 183d
000000b0: 156a e93d 6727 fb3d 02e7 2e3d 8132 31be
000000c0: 68a7 3cbe 24a9 273e 8e44 85bd 5158 123e
000000d0: 1d93 313e a9be 2cbe d858 80bd b70c 2cbe
000000e0: 71ab 903b 2b20 ecbd e1d1 353e 48b2 063e
000000f0: 95f9 2bbe 29f9 3fbe 683a 4bbe 365f 3e3e
00000100: b31c 05bc 3870 533e e790 3e3e e106 e43d
00000110: e132 e8bd c29c 473e c04e 60bb 93b4 6d3c
00000120: 9b3f b4bd 70fa 43be 5535 22be 9784 353e
00000130: 9bf7 1dbe 9197 533e 878b 46be 83a1 2cbe
00000140: eacd 96bd 4cc9 3a3e 8823 c63b fbb5 513e
00000150: a7d3 0a3e 6d52 99bd 40ad 29be 7ba8 583e
00000160: b680 113e dbc4 693c 2f8a 353e ecf2 37be
00000170: 47e1 3cbe ffaf 823d 6893 353e 401b 27be
00000180: f0e0 55be 2687 2c3d 408e dfbc 9e7f 753d
00000190: fe37 2a3c db80 293e adb9 393e 9fc0 2b3e
000001a0: 0e81 2ebc a16c d7bd 93d0 333e 39a2 2ebe
000001b0: 9526 f6bd 54d2 54be 5ac5 b5bd 1817 003e
000001c0: de59 833d 8067 e2bd 0b8e 333e cd36 75bd
000001d0: 347e 01be d18c 393e 1761 f23d 6755 433d
000001e0: 18b1 4fbe 4d6c 503e 28a5 81bd 4eac b5bd
000001f0: 61ed f93d fbf0 843d 2bdd 923d 8949 1ebe
-0.21663254 -0.17177437 -0.09336543 -0.17988522 0.1882848 0.01308664 0.101976246 -0.1866622
0.21809451 0.1503722 0.042292118 -0.1071803 0.064537056 0.011776926 0.08209658 0.13792704
0.17386204 -0.106378436 -0.16953619 -0.034184765 -0.087450214 0.15746175 0.18021914 -0.12216791
-0.14098367 -0.17922547 -0.19962007 0.12593071 0.02847776 -0.185785 -0.13581218 0.08446311
0.016923275 -0.14864686 0.119448505 -0.1360652 0.18403931 -0.103721224 -0.04370562 -0.15309519
0.20594724 0.19422676 -0.1942795 0.037113965 0.11397187 0.12263375 0.042700775 -0.17304422
-0.18423235 0.16373116 -0.065072164 0.14291503 0.17341276 -0.16869606 -0.062669456 -0.16801725
0.0044149687 -0.11529573 0.17755844 0.13153946 -0.16794427 -0.18747391 -0.19846499 0.18591008
-0.008124518 0.20648277 0.18609963 0.111341245 -0.113378294 0.19493392 -0.0034226626 0.014508384
-0.08801194 -0.19138503 -0.15840657 0.1772636 -0.15426485 0.20663287 -0.19389163 -0.16858487
-0.07363494 0.18240851 0.006046716 0.20479576 0.13557301 -0.074864246 -0.16569996 0.2115802
0.14209256 0.014268125 0.17728494 -0.17963761 -0.18445311 0.06381225 0.17732012 -0.16318989
-0.20886588 0.042121075 -0.02728951 0.05993616 0.010389326 0.1655306 0.18137236 0.16772698
-0.010650886 -0.10518766 0.17560034 -0.1705407 -0.12019078 -0.20783359 -0.088755324 0.1250881
0.06413625 -0.11054897 0.17534654 -0.059866715 -0.12645799 0.18120123 0.11834925 0.047688868
-0.202824 0.20353813 -0.06330329 -0.08870755 0.122034796 0.06491276 0.07171091 -0.15457739

out.bias f4 [2]
00000000: b6af 8e3d 62fc 8a3d
0.06967108 0.067864195
